demo/pretrained/mpiigaze_resnet_preact.pth (torch_old, 317770 bytes, 39 tensors)

conv.weight f4 [16, 1, 3, 3]
0.09404548 0.038311522 0.00064983126 0.025170071 -0.00704787 -0.024657352 -0.017295657 -0.0015704922
-0.0038691591 -0.015078755 -0.013813765 0.023290448 -0.0141668655 0.00928714 0.057022426 -0.0068804007
0.032744236 0.0854003 0.010906759 -0.041194197 -0.037853055 -0.017888514 -0.03685115 0.03452972
-0.051010337 -0.0006183462 0.023349715 0.20923655 0.07635312 -0.02891615 0.10596438 -0.019939171
-0.13634881 0.030629704 -0.05790755 -0.14307158 0.055704337 -0.040791072 -0.010664238 0.0672752
-0.051533967 -0.08812274 0.066597596 -0.055719353 -0.07454485 -0.015109883 -0.029980803 -0.036270328
0.06277713 0.043447822 -0.0114022 0.03498423 0.04396759 0.023515489 0.13715345 -0.06890709
-0.21325059 -0.018841438 -0.11021567 -0.090280436 0.10601328 0.12725373 0.1269587 -0.026842201
-0.058706943 -0.06088883 0.053857893 0.031470522 0.009452959 0.054409284 0.036318794 0.0351736
0.031641554 0.022517357 0.0059523927 0.0011689768 0.0033901306 0.0027993692 -0.02099193 -0.009132473
-0.00033071276 0.016814038 0.016531298 0.0135395285 0.008600647 -0.0030793627 -0.0027971284 -0.009639778
-0.007140142 -0.0034363735 -0.14878795 -0.06405782 0.055224206 -0.1418945 -0.0076190066 0.08498748
-0.017923456 0.074903265 0.0654772 -0.035670053 -0.036289025 -0.018347308 -0.05099455 -0.0113073075
0.0053911624 -0.008447603 0.013000537 -0.008405337 -0.005989257 -0.05426961 -0.081749275 -0.0031732114
-0.03344123 -0.061638057 -0.018871795 0.051368132 -0.002591153 0.008271873 0.06920816 0.11850031
-0.063658655 -0.08483328 -0.095831394 0.037291013 0.0022102513 -0.061364353 0.04500085 0.018228054
0.114078864 -0.034497194 -0.08195439 0.047102813 -0.07815283 -0.10805184 -0.019119259 0.025294498
0.028365847 0.011888421 -0.0011767702 0.02479073 -0.0043950668 0.0012911354 0.01096983 -0.0051094275
00000000: eb9a c03d 8bec 1c3d 7059 2a3a 7731 ce3c
00000010: d2f1 e6bb 37fe c9bc 9faf 8dbc f9d8 cdba
00000020: b891 7dbb e20c 77bc 2153 62bc 9ccb be3c
00000030: 241c 68bc 1729 183c 5990 693d fc74 e1bb
00000040: d21e 063d 5ae6 ae3d 43b2 323c 3fbb 28bd
00000050: ce0b 1bbd ef8a 92bc 3bf1 16bd 096f 0d3d
00000060: 37f0 50bd 8318 22ba e747 bf3c 1b42 563e
00000070: 065f 9c3d 90e1 ecbc da03 d93d 7957 a3bc
00000080: 069f 0bbe 25eb fa3c 7830 6dbd 5b81 12be
00000090: 3b2a 643d 8a14 27bd 0eb9 2ebc 94c7 893d
000000a0: 4815 53bd b279 b4bd 5264 883d fa39 64bd
000000b0: f8aa 98bd 718f 77bc 4d9a f5bc 3290 14bd
000000c0: 4c91 803d 58f6 313d 4bd0 3abc a04b 0f3d
000000d0: 5c17 343d 8ea3 c03c f471 0c3e 291f 8dbd
000000e0: 5d5e 5abe 5c59 9abc c1b8 e1bd f3e4 b8bd
000000f0: 7e1d d93d cd4e 023e 7601 023e 2de4 dbbc
00000100: b176 70bd 9166 79bd 189a 5c3d 3ce7 003d
00000110: 95e0 1a3c 45dc 5e3d 04c3 143d 3112 103d
00000120: 939a 013d 5276 b83c 4a0c c33b 5a38 993a
00000130: f42c 5e3b 9f75 373b 45f7 abbc 5ea0 15bc
00000140: 8463 adb9 98bd 893c a56c 873c e6d4 5d3c
00000150: bae9 0c3c 22cf 49bb 0750 37bb 29f0 1dbc
00000160: daf7 e9bb c834 61bb de5b 18be bf30 83bd
00000170: c732 623d cb4c 11be dca8 f9bb ea0d ae3d
00000180: 36d4 92bc e266 993d e918 863d c31a 12bd
00000190: cda3 14bd 184d 96bc a9df 50bd 4942 39bc
000001a0: 59a8 b03b d167 0abc 3400 553c 8ab6 09bc
000001b0: 8741 c4bb d049 5ebd 2a6c a7bd a7f5 4fbb
000001c0: acf9 08bd 3078 7cbd 0699 9abc 6467 523d
000001d0: 55d0 29bb c086 073c 02bd 8d3d 4ab0 f23d
000001e0: 785f 82bd 12bd adbd 4043 c4bd 76be 183d
000001f0: ddd9 103b 3059 7bbd d052 383d 0053 953c
00000200: 2ea2 e93d ee4c 0dbd b4d7 a7bd e1ee 403d
00000210: 970e a0bd 484a ddbd fe9f 9cbc 6836 cf3c
00000220: 7e5f e83c a7c7 423c db3d 9aba ee15 cb3c
00000230: 7e04 90bb 513b a93a cdba 333c fc6c a7bb

stage1.block1.bn1.weight f4 [16]
0.042667337 0.08550639 0.08442098 0.077002995 0.072923586 0.0769026 0.09724664 0.036456335
0.0059830192 0.0024318395 0.07130873 0.061713427 0.13829434 0.06569466 0.09275477 0.068284824
00000000: f2c3 2e3d f91d af3d e8e4 ac3d bfb3 9d3d
00000010: f658 953d 1c7f 9d3d 3f29 c73d 3d53 153d
00000020: 340d c43b 7f5f 1f3b 500a 923d 38c7 7c3d
00000030: 089d 0d3e ec8a 863d 36f6 bd3d ead8 8b3d

stage1.block1.bn1.bias f4 [16]
0.0006300067 -0.055904616 -0.07963718 0.05237369 -0.011109713 -0.06567685 0.059622813 0.01369304
-0.021251263 -0.008800326 0.015008943 -0.020867111 -0.12603895 0.01405829 -0.03306534 -0.08985441
00000000: 0927 253a 3dfc 64bd d118 a3bd cb85 563d
00000010: 8405 36bc 9681 86bd 0d37 743d c658 603c
00000020: 2117 aebc 3e2f 10bc 12e8 753c 81f1 aabc
00000030: 5b10 01be be54 663c 866f 07bd 9705 b8bd

stage1.block1.bn1.running_mean f4 [16]
0.049150635 0.07704584 -0.05667534 0.014442716 -0.06635025 0.0581568 -0.005723261 0.037909742
0.01772448 0.013948215 -0.04765284 -0.0732121 -0.10226674 -0.03895161 -0.050392725 0.044699173
00000000: 2d52 493d 36ca 9d3d 6724 68bd 24a1 6c3c
00000010: a4e2 87bd d335 6e3d 318a bbbb 3f47 1b3d
00000020: ee32 913c 0e87 643c a02f 43bd 3af0 95bd
00000030: 3971 d1bd b98b 1fbd 9a68 4ebd 7b16 373d

stage1.block1.bn1.running_var f4 [16]
0.0011664943 0.002197817 0.0010612091 0.004673708 0.0021071362 0.0015147593 0.005146508 0.0014076693
0.00020545001 0.00011884775 0.0032616914 0.0017939374 0.003750677 0.0013924862 0.0029395646 0.0006650374
00000000: 0ee5 983a 4009 103b 4518 8b3a e825 993b
00000010: e117 0a3b e38a c63a 0aa4 a83b 8b81 b83a
00000020: 116e 5739 e63d f938 1ac2 553b 8d22 eb3a
00000030: ebcd 753b 1584 b63a b6a5 403b e855 2e3a

stage1.block1.conv1.weight f4 [16, 16, 3, 3]
0.0053318203 0.002208103 0.00049884827 -0.0005007763 0.012849463 0.011881073 0.0013626661 0.006534314
0.012637633 -0.0052585965 -0.0022056145 -0.0023935793 0.013509642 0.0069201016 0.002827349 0.03890952
0.022993213 0.008250483 0.0049060546 -0.0049990183 -0.006899917 0.0024073976 0.0012011672 -0.004076382
0.002996537 0.0039330297 -0.0024141367 -0.014896617 -0.011697803 -0.026794009 0.002885676 0.01191827
0.01672292 -0.007508313 -0.003333805 0.013750063 -0.016847923 -0.008636877 -0.005821535 -0.00089636765
-0.0044539277 0.008579403 0.010289573 -0.0021538874 0.016924044 -0.0019659877 6.774634e-05 -0.009766144
0.007512341 0.011144883 0.007527858 0.020974793 0.019578226 0.009710771 0.04069808 0.03392492
-0.0030621584 0.011979157 0.004924425 -0.019193294 0.040998727 0.034203548 0.018951537 0.018053165
0.019924486 0.013246941 0.01141451 0.010771161 0.0035841253 0.027077232 0.0133538665 0.0048932275
0.0059325635 0.0037691847 0.0026323816 -0.00427648 0.0015029762 0.0046085725 -0.0017429859 0.0037406925
0.0023584832 1.8277444e-06 -0.0010108227 -0.0010844182 0.0032319182 0.002511411 0.0028425802 0.00032272396
0.0023207183 -0.00040049778 0.024010446 0.0108429305 -0.0009279491 -0.010272495 -0.024590801 -0.029737905
-0.008475255 -0.0061630756 -0.0149028255 -0.011249506 -0.009116051 -0.0056474 -0.01365346 -0.017219627
-0.004493874 0.0015095519 0.0018829191 0.0077936975 -0.013177345 -0.012002653 -0.004158782 -0.0069535845
-0.0018627801 0.0017054464 -0.004481981 -0.0020169 0.004538767 -0.026173297 -0.043188587 -0.036493734
0.03703587 0.023252545 0.016362045 -0.0011345365 0.011714665 0.022486346 0.018464878 0.0037893087
-0.008305408 0.024519833 0.026297571 0.016606657 -0.00411349 -0.0023584783 -0.005199307 -0.0028083336
-0.0055516143 -0.012614805 0.008947112 0.00616734 -0.0033649125 0.022843001 0.01916945 0.014548203
0.020037394 0.02601268 0.009777899 0.021752814 0.015691305 0.00076257694 0.007744574 0.015108763
0.0072385366 0.009510993 -0.00034619012 -0.0003003926 -0.004598014 -0.0002674436 0.002986509 -0.025923965
-0.013692477 -0.002444924 0.009947706 0.007785379 0.004591988 0.0063418406 0.003636498 0.0016368804
0.0040096524 -0.0013934465 -0.00087723014 0.014688149 0.03448953 0.01536329 0.015319224 0.010078204
-0.01860108 0.012703143 0.02251131 -0.008189601 -0.0015379166 -0.0014317576 -9.347053e-05 -0.001940404
0.0012208981 -0.0078853 -0.011649227 0.0010192542 -0.007627088 -0.0006189912 0.009147094 0.005109702
-0.01091273 -0.0036257622 0.0034038015 -0.018656377 -0.019230884 -0.013507255 -0.022114795 0.010977553
0.014939241 -0.008213744 0.0063717803 0.014577887 -0.02547241 -0.021430707 -0.013585408 0.0068146097
0.013258721 0.012120931 0.0057051573 0.013529847 0.023145579 -0.008346429 -0.006538478 -0.000113978844
0.002646004 0.009649905 0.0033073477 0.005313057 0.0029932135 -0.0009873456 0.00019824975 0.005586219
-1.3502505e-05 0.0042785136 0.0031894052 0.0044560893 0.005525394 -0.0004988823 0.0022719593 0.003775808
0.005341266 0.0043650074 0.0010776338 0.0027398935 -0.0032387637 0.0018562275 0.01816685 0.017288592
-0.0072715417 0.007817168 0.007939772 0.007675433 0.0050683734 -0.0016231374 0.0068021365 0.00023905729
-0.001176034 -0.0012390171 -0.007489884 -0.008137228 0.0024215488 -0.0046421057 0.0022561383 0.00060626195
00000000: 8db6 ae3b d2b5 103b 24c5 023a 8746 03ba
00000010: 8e86 523c d5a8 423c 7d9b b23a cc1d d63b
00000020: 130e 4f3c 4e50 acbb 128c 10bb 99dd 1cbb
00000030: 8c57 5d3c 05c2 e23b 0b4b 393b 975f 1f3d
00000040: 435c bc3c 092d 073c f8c2 a03b cece a3bb
00000050: b318 e2bb 6ec5 1d3b 7c70 9d3a 2c93 85bb
00000060: 8c61 443b a5e0 803b 7e36 1ebb f110 74bc
00000070: 24a8 3fbc 1c7f dbbc 9c1d 3d3b d944 433c
00000080: 81fe 883c 4b08 f6bb f77b 5abb f247 613c
00000090: a804 8abc b081 0dbc 93c2 bebb 37fa 6aba
000000a0: 41f2 91bb a090 0c3c 9995 283c 3c28 0dbb
000000b0: 4ba4 8a3c cdd7 00bb 0a13 8e38 2d02 20bc
000000c0: 152a f63b 0799 363c 40ac f63b 54d3 ab3c
000000d0: 8462 a03c ed19 1f3c 08b3 263d dbf4 0a3d
000000e0: 7eae 48bb 3a44 443c 125d a13b 413b 9dbc
000000f0: 48ee 273d 0519 0c3d 4140 9b3c 3be4 933c
00000100: ad38 a33c b309 593c ed03 3b3c 8679 303c
00000110: a5e3 6a3b 12d1 dd3c 2dca 5a3c 5e57 a03b
00000120: f365 c23b 6d04 773b 0984 2c3b b721 8cbb
00000130: 83ff c43a 8203 973b e774 e4ba 6826 753b
00000140: c890 1a3b d250 f535 957d 84ba 0923 8eba
00000150: 97ce 533b 7c96 243b 954a 3a3b 4733 a939
00000160: 3117 183b e7f9 d1b9 8eb1 c43c 8ca6 313c
00000170: 9c41 73ba f84d 28bc a672 c9bc e89c f3bc
00000180: ccdb 0abc a0f3 c9bb fb2a 74bc d94f 38bc
00000190: 7d5b 15bc d30d b9bb c3b2 5fbc 2d10 8dbc
000001a0: 5941 93bb 28dc c53a 48cc f63a 4662 ff3b
000001b0: cae5 57bc c7a6 44bc 6446 88bb e5da e3bb
000001c0: 8728 f4ba 4989 df3a 95dd 92bb f82d 04bb
000001d0: f0b9 943b 6269 d6bc 84e6 30bd 747a 15bd
000001e0: edb2 173d 1f7c be3c b209 863c bab4 94ba
000001f0: deee 3f3c 4935 b83c a843 973c 0d56 783b
00000200: 6813 08bc d1dd c83c 016e d73c af0a 883c
00000210: 75ca 86bb b390 1abb f35e aabb 050c 38bb
00000220: 51ea b5bb 54ae 4ebc e896 123c 6617 ca3b
00000230: dd85 5cbb 3f21 bb3c 4009 9d3c 965b 6e3c
00000240: 7625 a43c 8b18 d53c 7b33 203c f532 b23c
00000250: 0d8b 803c ace7 473a 32c6 fd3b bf8a 773c
00000260: 3f31 ed3b ffd3 1b3c da80 b5b9 037e 9db9
00000270: f0aa 96bb ac37 8cb9 4eb9 433b 7f5e d4bc
00000280: 6956 60bc 053b 20bb b4fb 223c 7e1c ff3b
00000290: 6378 963b 37cf cf3b 5052 6e3b 988c d63a
000002a0: 6763 833b 4ea4 b6ba ebf5 65ba 90a6 703c
000002b0: e544 0d3d 4fb6 7b3c 7cfd 7a3c 0d1f 253c
000002c0: 4b61 98bc d820 503c a469 b83c ad2d 06bc
000002d0: eb93 c9ba d0a9 bbba 9c05 c4b8 2755 feba
000002e0: 8b06 a03a 5831 01bc 66dc 3ebc 7f98 853a
000002f0: a7ec f9bb cc43 22ba b1dd 153c 496f a73b
00000300: 4fcb 32bc 329e 6dbb 5012 5f3b 42d5 98bc
00000310: 168a 9dbc 894d 5dbc 162a b5bc 32db 333c
00000320: b8c3 743c f092 06bc 5eca d03b 17d8 6e3c
00000330: 84ab d0bc 738f afbc 5595 5ebc 174d df3b
00000340: 1b3b 593c df96 463c 54f2 ba3b 4bac 5d3c
00000350: cc9b bd3c 76bf 08bc bb40 d6bb ed07 efb8
00000360: 9568 2d3b a31a 1e3c 16c0 583b 2719 ae3b
00000370: ca29 443b d269 81ba 43e1 4f39 9a0c b73b
00000380: d188 62b7 c632 8c3b 5705 513b 6304 923b
00000390: 5d0e b53b 6dc7 02ba 27e5 143b 8c73 773b
000003a0: c905 af3b 5608 8f3b 643f 8d3a c98f 333b
000003b0: 7041 54bb a94c f33a a5d2 943c cea0 8d3c
000003c0: 1d46 eebb 9413 003c d115 023c 3382 fb3b
000003d0: 9914 a63b 74bf d4ba 75e4 de3b 74ab 7a39
000003e0: 2725 9aba 8466 a2ba b36d f5bb 0252 05bc
000003f0: d9b2 1e3b ce1c 98bb b8db 133b 8ded 1e3a

stage1.block1.bn2.weight f4 [16]
0.13155307 0.10216601 0.15700413 0.10419533 0.16846511 0.10526869 0.12523264 0.15738395
0.1636627 0.11468007 0.13080443 0.15499537 0.17084011 0.13285035 0.13361527 0.11643619
00000000: d9b5 063e 6a3c d13d b1c5 203e 5c64 d53d
00000010: 1e82 2c3e 1c97 d73d fc3c 003e 4229 213e
00000020: 3297 273e 62dd ea3d 99f1 053e 1bb7 1e3e
00000030: b6f0 2e3e ec09 083e 71d2 083e 1976 ee3d

stage1.block1.bn2.bias f4 [16]
0.008507264 -0.011528423 0.03869496 -0.053051855 -0.012737673 0.03527476 -0.018541139 0.031451747
0.0036177267 -0.071627416 0.00793743 0.006370132 0.013830921 0.08675039 -0.010270194 0.021533081
00000000: 0d62 0b3c b6e1 3cbc 9b7e 1e3d e74c 59bd
00000010: acb1 50bc 447c 103d 96e3 97bc 8cd3 003d
00000020: 6217 6d3b 65b1 92bd ff0b 023c 8abc d03b
00000030: 169b 623c 30aa b13d 5144 28bc 2566 b03c

stage1.block1.bn2.running_mean f4 [16]
0.014196266 0.0047018444 -0.004541001 0.0034672637 0.023969874 -0.014547747 -0.0019812149 0.0026858798
-0.0062490753 0.0044670156 -0.019994974 -0.009217618 -0.004893423 -0.018416626 0.0053344537 -0.013378302
00000000: 7597 683c ee11 9a3b adcc 94bb 083b 633b
00000010: 785c c43c ac59 6ebc 45d7 01bb 9605 303b
00000020: 0bc5 ccbb 0b60 923b 80cc a3bc 7e05 17bc
00000030: 0259 a0bb 77de 96bc a4cc ae3b aa30 5bbc

stage1.block1.bn2.running_var f4 [16]
0.00013312975 4.444146e-05 0.00016477151 4.938719e-05 0.0002632122 0.00013864138 0.00010029369 0.00020616518
0.00013706625 0.00011297465 9.231743e-05 0.00029212012 0.00043582876 0.00022871932 0.0001557214 9.330772e-05
00000000: bf98 0b39 a866 3a38 84c6 2c39 1725 4f38
00000010: beff 8939 4360 1139 c454 d238 0b2e 5839
00000020: 71b9 0f39 ceec ec38 8b9a c138 b327 9939
00000030: f27f e439 60d4 6f39 2549 2339 33ae c338

stage1.block1.conv2.weight f4 [16, 16, 3, 3]
0.024853753 0.020342154 -8.3852945e-05 -0.024371013 -0.02615381 -0.029614212 -0.021205738 -0.030750215
-0.03637379 0.0007185567 -0.020710183 -0.021522535 0.013653022 0.00935416 0.009922992 0.012540466
0.008212199 -0.007388327 -0.025299214 -0.0064894767 0.021556742 0.01184294 0.00634634 -0.00419435
0.0036591874 -0.009147992 -0.034779936 0.007707011 -0.008437514 -0.013299309 0.0031481606 -0.010159565
-0.0025166834 -0.026171256 -0.022903843 -0.0042094886 0.04183747 -0.005988564 -0.03230705 0.022582201
-0.029049415 -0.047261763 0.012300234 -0.01375644 -0.025421659 -0.02219209 -0.021173274 -0.018859297
-0.007882863 0.0015327444 -0.0039536725 0.0135913165 0.020020261 0.023344604 0.0012151243 -0.0031250415
-0.021489982 0.008719432 -0.0051571196 -0.020876938 0.034196842 0.033452034 0.025235124 -0.008087875
-0.016807752 -0.009775585 -0.0054726 0.0030132537 0.041589618 -0.0011994134 0.017135784 0.022729972
-0.017254895 -0.0073590493 0.0043729413 0.018639602 0.037507974 0.055077378 -0.014409466 -0.016467549
-0.018164704 0.04241085 0.041093968 0.048431866 0.019527476 0.013621053 0.010573867 0.02127753
0.0069505004 -0.005678966 0.011104877 0.034116182 -0.0027978134 0.00023188407 0.015473334 -0.01726265
0.021414738 0.017482663 0.015428052 -0.037293192 -0.02412891 -0.014011504 -0.015645923 0.0075917235
0.021350926 -0.004856443 0.017189344 0.0206733 -0.028278083 -0.0094147725 -0.004978786 -0.009361229
-0.006704273 -0.011935666 0.03541665 0.015264604 -0.013095929 -0.012219367 -0.001974205 0.0068748114
-0.005781655 0.005878437 0.030870177 -0.00947947 -0.017270774 0.0018292827 0.0100070285 -0.0043218015
-0.03060275 0.008172337 0.0019789245 -0.02253841 0.0014704594 0.00084060867 -0.017737577 0.009780196
0.014022097 0.018415067 -0.010470884 0.001483657 0.012396859 -0.04545409 -0.02138801 -0.009984551
-0.038950294 -0.03484961 -0.027778244 -0.008922999 -0.00390418 0.0028523845 0.008656737 0.021910185
0.036288995 -0.008994307 -0.0030754795 0.004085927 -0.013156466 -0.005958852 0.00093924295 -0.020789945
-0.011021216 -0.0037874142 0.016471608 0.015561941 0.003617791 -0.009908081 -0.0017591104 -0.0034899109
-0.003293215 -0.001623071 -0.012587348 -0.030622182 -0.027908728 -0.015765226 -0.012091627 -0.011792425
0.004810823 -2.016243e-06 0.005021938 0.01594091 0.009890929 0.008618178 0.007447892 0.0127338935
0.009345645 0.010425077 -0.008020565 -0.009720345 -0.0014734942 0.020429982 0.0057226573 -0.0020332478
0.013530266 0.005365767 0.0036538083 0.0007313502 -0.0037430865 -0.005080675 -0.024439635 -0.015586643
-0.009592881 -0.007504106 -0.0052800574 0.0020928246 -0.033284612 -0.032271042 -0.03013643 -0.0133647015
-0.023494024 -0.028874334 0.008639303 -0.003266763 -0.0019321427 0.0006358697 -0.0035138242 0.0021424035
0.012820772 0.0037363651 -0.0069454494 -0.009084004 -0.013558431 -0.009557309 -0.010143441 -0.016113456
-0.02411479 -0.0041739997 -0.0014669352 -0.0038051114 0.0022984648 0.00020016253 -0.0024747797 0.012998901
0.008266585 0.002514889 0.036093753 0.018089158 -7.449971e-05 0.013819757 -0.0048618754 -0.016717007
0.016237143 -0.003128174 -0.0008790097 -0.0363955 -0.020940822 -0.014199609 -0.013073639 -0.00523415
-0.0011417685 -0.0046027075 -0.002041664 0.009791077 0.013479466 0.005576304 0.0023604534 0.0058248844
00000000: 199a cb3c 97a4 a63c 35da afb8 b8a5 c7bc
00000010: 8440 d6bc 8199 f2bc a8b7 adbc e0e7 fbbc
00000020: affc 14bd 865d 3c3a 67a8 a9bc 0750 b0bc
00000030: edb0 5f3c 3142 193c 0c94 223c 8776 4d3c
00000040: 768c 063c c719 f2bb 4c40 cfbc ada5 d4bb
00000050: c497 b03c e408 423c f5f4 cf3b c270 89bb
00000060: face 6f3b 76e1 15bc 6875 0ebd 188b fc3b
00000070: 803d 0abc 58e5 59bc 5f51 4e3b 4e74 26bc
00000080: f1ee 24bb 1a65 d6bc d7a0 bbbc c0ef 89bb
00000090: c45d 2b3d b73b c4bb 6654 04bd 4ffe b83c
000000a0: 0af9 edbc 8d95 41bd ec86 493c b162 61bc
000000b0: 1541 d0bc 30cc b5bc 9373 adbc d07e 9abc
000000c0: 2027 01bc 5ee6 c83a cf8d 81bb 1dae 5e3c
000000d0: 8801 a43c 2f3d bf3c ce44 9f3a 7fcd 4cbb
000000e0: c20b b0bc f3db 0e3c 0efd a8bb 1d06 abbc
000000f0: fd11 0c3d 0005 093d e4b9 ce3c 0283 04bc
00000100: 69b0 89bc c629 20bc 7f53 b3bb 027a 453b
00000110: e059 2a3d a335 9dba 5860 8c3c 3534 ba3c
00000120: 235a 8dbc 2e24 f1bb e44a 8f3b 14b2 983c
00000130: f6a1 193d d198 613d ae15 6cbc f4e6 86bc
00000140: 25ce 94bc 00b7 2d3d 2652 283d 7e60 463d
00000150: 16f8 9f3c d62a 5f3c 033e 2d3c 374e ae3c
00000160: 06c1 e33b 9f16 babb 3bf1 353c 69bd 0b3d
00000170: 855b 37bb e825 7339 de83 7d3c 676a 8dbc
00000180: f66d af3c cd37 8f3c f1c5 7c3c bfc0 18bd
00000190: fea9 c5bc 8290 65bc e12b 80bc fec3 f83b
000001a0: 23e8 ae3c cc22 9fbb abd0 8c3c 0d5b a93c
000001b0: 70a7 e7bc 6b40 1abc 1625 a3bb d75f 19bc
000001c0: 85af dbbb d08d 43bc 0d11 113d 6418 7a3c
000001d0: 4f90 56bc bd33 48bc aa61 01bb 1946 e13b
000001e0: 0a74 bdbb e79f c03b 74e3 fc3c c74f 1bbc
000001f0: 707b 8dbc 8bc4 ef3a 85f4 233c e69d 8dbb
00000200: 9eb2 fabc 44e5 053c d8b0 013b 79a2 b8bc
00000210: 6ebc c03a 4b5c 5c3a 654e 91bc 1d3d 203c
00000220: f0bc 653c 32db 963c 128e 2bbc 4577 c23a
00000230: 321c 4b3c 112e 3abd e835 afbc 3e96 23bc
00000240: 588a 1fbd 77be 0ebd 338f e3bc c531 12bc
00000250: 45dd 7fbb 12ef 3a3b fdd4 0d3c fd7c b33c
00000260: c5a3 143d dc5c 13bc fc8d 49bb 3de3 853b
00000270: 388e 57bc 7942 c3bb 8737 763a ad4f aabc
00000280: 5592 34bc 4436 78bb 77ef 863c 83f7 7e3c
00000290: 7618 6d3b 8155 22bc f391 e6ba fdb6 64bb
000002a0: fbd2 57bb 3abd d4ba 2a3b 4ebc 5fdb fabc
000002b0: d8a0 e4bc 1326 81bc f61b 46bc 0435 41bc
000002c0: 1ca4 9d3b ca4e 07b6 128f a43b 8396 823c
000002d0: 900d 223c 4233 0d3c 720d f43b d2a1 503c
000002e0: 7a1e 193c f1cd 2a3c b068 03bc 1542 1fbc
000002f0: 4322 c1ba c75c a73c 2185 bb3b 3d40 05bb
00000300: 0cae 5d3c 51d3 af3b bb74 6f3b 15b8 3f3a
00000310: 924e 75bb ca7b a6bb a135 c8bc 1e5f 7fbc
00000320: 762b 1dbc 01e5 f5bb 5504 adbb c527 093b
00000330: 7255 08bd a42e 04bd ade0 f6bc 9ff7 5abc
00000340: 8a76 c0bc de89 ecbc dd8b 0d3c 3017 56bb
00000350: f33f fdba 7eb0 263a 3048 66bb 9167 0c3b
00000360: 370e 523c cedd 743b a796 e3bb 13d5 14bc
00000370: 2e24 5ebc 4296 1cbc ad30 26bc 5e00 84bc
00000380: 618c c5bc 0cc6 88bb 2d46 c0ba 2d5f 79bb
00000390: d7a1 163b b8e2 5139 ea2f 22bb 58f9 543c
000003a0: 9270 073c d6d0 243b 0bd7 133d b72f 943c
000003b0: ba3c 9cb8 436c 623c 5e50 9fbb 1bf2 88bc
000003c0: c203 853c 0d02 4dbb 586d 66ba 7313 15bd
000003d0: 168c abbc 7aa5 68bc d132 56bc 3c83 abbb
000003e0: 65a7 95ba 4fd2 96bb 70cd 05bb c16a 203c
000003f0: fad8 5c3c 6eb9 b63b d6b1 1a3b acde be3b

stage2.block1.bn1.weight f4 [16]
0.10063311 0.08684648 0.11529084 0.10781677 0.09233435 0.080427565 0.11220697 0.09121815
0.110836014 0.10935237 0.11748075 0.0717261 0.1103509 0.089536294 0.10022694 0.1108413
00000000: bb18 ce3d 91dc b13d 9b1d ec3d 0acf dc3d
00000010: cb19 bd3d 35b7 a43d c5cc e53d 95d0 ba3d
00000020: fefd e23d 23f4 df3d bf99 f03d 22e5 923d
00000030: a7ff e13d ce5e b73d c843 cd3d c300 e33d

stage2.block1.bn1.bias f4 [16]
-0.0153052 -0.042664517 -0.002938889 -0.0026228346 0.00036054602 0.016752519 0.0019282689 -0.009103172
-0.021088127 0.00028758546 -0.019254874 0.04068679 -0.00915349 -0.007386797 0.010171842 0.0014750047
00000000: a9c2 7abc fdc0 2ebd 609a 40bb dde3 2bbb
00000010: ab07 bd39 943c 893c f8bd fc3a 7925 15bc
00000020: 02c1 acbc 11c7 9639 66bc 9dbc 31a7 263d
00000030: 85f8 15bc f20c f2bb cca7 263c f254 c13a

stage2.block1.bn1.running_mean f4 [16]
0.011526557 0.011876254 0.008819857 0.058766548 0.007596332 0.0004570714 0.07071855 0.020698853
-0.0077712885 -0.03182866 0.049389824 0.007808392 -0.01538248 -0.0013136325 0.04452518 -0.008982561
00000000: e2d9 3c3c 9f94 423c 2981 103c 31b5 703d
00000010: a7ea f83b 16a3 ef39 e3d4 903d a490 a93c
00000020: 4ba6 febb c55e 02bd fc4c 4a3d 8add ff3b
00000030: cc06 7cbc 312e acba 0960 363d 972b 13bc

stage2.block1.bn1.running_var f4 [16]
0.0011192549 0.0008359997 0.0031833954 0.004886594 0.0027178337 0.0014939569 0.0044003855 0.0014841153
0.0015133736 0.0012192277 0.0031103424 0.001699931 0.0031048506 0.0023237553 0.0040619234 0.0020328856
00000000: f6b3 923a fd26 5b3a 83a0 503b b91f a03b
00000010: af1d 323b e0d0 c33a 1c31 903b a586 c23a
00000020: 645c c63a 7ece 9f3a e3d6 4b3b 38d0 de3a
00000030: c07a 4b3b 254a 183b e219 853b 293a 053b

stage2.block1.conv1.weight f4 [32, 16, 3, 3]
-0.007849994 -0.0060738013 -0.017145483 0.008596568 0.0018215027 -0.014259223 -0.016836153 -0.001459087
-0.0010778244 -0.007613041 -0.017143095 -0.013134811 0.0062866434 -0.004133456 0.006298751 0.017775748
0.016083123 0.015547772 -0.030970097 -0.027656656 -0.03359634 -0.011636847 -0.017309051 -0.0034375186
-0.016547753 -0.010499288 0.029061826 -0.007562542 0.0109108 0.0068191034 -0.013467534 0.005810935
0.010080534 -0.0021297613 0.020847077 0.01957562 -0.007184558 -0.022069357 0.0110117085 0.0011422932
-0.010387071 0.013432929 0.038271215 0.025818208 0.049216818 -0.0077792024 -0.009203685 -0.011982375
0.0021451232 -0.010016887 -0.009597675 0.027023181 -0.0002443947 -0.015608126 -0.0035625002 0.024759216
0.029785037 0.013455817 0.03097664 0.010390058 -0.008722941 -0.014855751 -0.03719198 -0.022730015
-0.0212244 -0.0062918295 -0.013421571 -0.016267804 0.020007538 0.012897563 0.012880271 0.018567592
0.0071057943 0.03033207 0.013103289 -0.009916158 0.0058900947 0.006774369 -0.023581713 -0.025601398
-0.02458513 -0.033515662 -0.024774738 -0.007103919 -0.020442622 0.007659165 0.031776812 0.024411669
0.0132521605 0.020762825 -0.03561725 0.0056809313 0.0050204005 -0.03719542 -0.0014329578 0.019460417
0.0054465504 0.029279519 0.006339476 -0.014431893 0.038301863 0.03901944 -0.036105305 0.010122361
0.021390475 -0.015757496 0.03245792 0.037119575 -0.03685752 -0.005942476 0.0039073466 -0.04206769
-0.017275915 0.010730541 -0.01308401 -0.0103036305 0.010944488 0.0075617954 0.023163918 0.024899244
-0.0026434865 0.014343164 0.0021183377 -0.02664948 0.001454075 0.004944612 -0.008760807 -0.0134237
-0.020027472 -0.020438965 -0.01522558 -0.021018805 -0.008000185 -0.0061897086 -0.016823512 0.022738269
0.028514296 0.027861813 -0.00168321 0.011720695 0.025283756 0.01200548 0.0108066555 -0.019505944
0.005268049 0.012115589 0.012902983 -0.017938312 -0.006725077 0.0028830816 -0.031083422 -0.010881582
0.002465121 -0.011778823 -0.005290976 0.0066594747 0.012681354 0.015810624 0.022587748 0.0018655539
0.018240923 0.030948713 0.014784665 -0.009978952 -0.039493598 0.007362462 0.011883252 -0.019322278
0.0026753736 0.0145767955 -0.017517082 0.034924377 0.020021781 -0.009913737 0.012654593 -0.0018463272
0.0012969772 0.010088937 0.008426958 0.014164574 0.031638008 0.03695172 0.029303892 0.025947787
0.020119607 0.019741725 -0.011166569 -0.02326151 -0.03209339 0.0066303452 -0.010200192 -0.024398642
0.019720286 -0.0047690263 -0.0018449471 0.029913938 0.009098164 0.019970581 0.0021316959 -0.021431388
-0.03728773 0.018245976 -0.014868975 -0.021756904 0.02594758 0.011097273 0.0057959175 -0.014941171
0.0030141084 0.009684826 -0.0038923817 0.004278637 -0.000711202 -0.0006071041 0.0045380876 -0.0011917248
0.029407008 -0.0016223058 -0.01574498 0.020991398 -0.011760201 -0.019143736 0.027727319 0.007250691
-0.01142062 0.0035975843 -0.004967405 -0.024267813 0.0038650034 -0.0054388456 -0.009705434 -0.0171255
-0.015982978 -0.029564828 0.03464035 -0.018946674 -0.0141288 0.02671696 -0.019558722 0.0077817906
0.01176624 -0.014641587 0.00774514 -0.026660617 -0.0071497858 0.02375827 -0.02869221 -0.00010339367
0.023086937 -0.03868166 -0.015016951 -0.0052661262 -0.0133406585 -0.00620323 -0.01602001 -0.024386514
00000000: 439d 00bc bd06 c7bb af74 8cbc 9fd8 0c3c
00000010: 7dbf ee3a 849f 69bc f9eb 89bc d63e bfba
00000020: c945 8dba d176 f9bb ad6f 8cbc 6433 57bc
00000030: 3000 ce3b f171 87bb c165 ce3b 729e 913c
00000040: c1c0 833c 15bc 7e3c 00b5 fdbc 3690 e2bc
00000050: 519c 09bd 79a8 3ebc b6cb 8dbc fe47 61bb
00000060: 278f 87bc 3505 2cbc 1113 ee3c 33cf f7bb
00000070: 36c3 323c c972 df3b efa6 5cbc a869 be3b
00000080: d328 253c 7793 0bbb 7dc7 aa3c 0d5d a03c
00000090: 716c ebbb ccca b4bc 746a 343c 00b9 953a
000000a0: 892e 2abc ca15 5c3c 47c2 1c3d b580 d33c
000000b0: 9397 493d aee8 febb 0ecb 16bc b951 44bc
000000c0: 3295 0c3b df1d 24bc 913f 1dbc b85f dd3c
000000d0: 1a22 80b9 3ab9 7fbc d678 69bb d7d3 ca3c
000000e0: c0ff f33c c975 5c3c b9c2 fd3c 103b 2a3c
000000f0: abea 0ebc 8965 73bc 9e56 18bd 4c34 babc
00000100: cbde adbc b12b cebb 26e6 5bbc 0f44 85bc
00000110: d9e6 a33c 4d50 533c c607 533c 101b 983c
00000120: b9d7 e83b f67a f83c 2daf 563c 6277 22bc
00000130: b201 c13b 87fb dd3b 702e c1bc 06ba d1bc
00000140: c166 c9bc b847 09bd 64f4 cabc fec7 e8bb
00000150: 4977 a7bc bcf9 fa3b 6728 023d fbfa c73c
00000160: 971f 593c cd16 aa3c 65e3 11bd 1b27 ba3b
00000170: 2c82 a43b 3a5a 18bd 16d2 bbba 746b 9f3c
00000180: fa78 b23b 9adb ef3c 61bb cf3b bf73 6cbc
00000190: 6ae2 1c3d d9d2 1f3d 28e3 13bd 42d8 253c
000001a0: 143b af3c dd15 81bc 99f2 043d b20a 183d
000001b0: e9f7 16bd 1ab9 c2bb 3309 803b 2c4f 2cbd
000001c0: 3886 8dbc 27cf 2f3c 515e 56bc 8fd0 28bc
000001d0: 8350 333c f0c8 f73b 42c2 bd3c 80f9 cb3c
000001e0: 583e 2dbb 97ff 6a3c cfd3 0a3b 0350 dabc
000001f0: a996 be3a 6906 a23b 7d89 0fbc 14ef 5bbc
00000200: a710 a4bc 9e6f a7bc b674 79bc a12f acbc
00000210: 3513 03bc 0ad3 cabb 76d1 89bc 9b45 ba3c
00000220: d096 e93c 753e e43c 289f dcba 2808 403c
00000230: e11f cf3c a2b2 443c 660e 313c eeca 9fbc
00000240: 999f ac3b 7780 463c 0967 533c 5ef3 92bc
00000250: 095e dcbb 15f2 3c3b a9a2 febc aa48 32bc
00000260: de8d 213b f7fb 40bc ec5f adbb b937 da3b
00000270: 74c5 4f3c 4885 813c f109 b93c 9a85 f43a
00000280: fd6d 953c 2888 fd3c 613b 723c c27e 23bc
00000290: 0ac4 21bd cf40 f13b f9b1 423c c149 9ebc
000002a0: 5255 2f3b 83d3 6e3c fc7f 8fbc dd0c 0f3d
000002b0: b804 a43c 3a6d 22bc 3655 4f3c 7600 f2ba
000002c0: 55ff a93a 124c 253c 3911 0a3c 8812 683c
000002d0: db96 013d b05a 173d b70e f03c 7490 d43c
000002e0: e0d1 a43c 66b9 a13c fcf3 36bc ec8e bebc
000002f0: 5c74 03bd 5e43 d93b b51e 27bc a9df c7bc
00000300: 708c a13c 7e45 9cbb 27d2 f1ba 130e f53c
00000310: 7710 153c 5899 a33c ecb3 0b3b e190 afbc
00000320: 05bb 18bd 9678 953c 009d 73bc 893b b2bc
00000330: 0590 d43c 56d1 353c aeeb bd3b d0cb 74bc
00000340: 5988 453b 1bad 1e3c 5417 7fbb cf33 8c3b
00000350: f56f 3aba 1126 1fba 3db4 943b a633 9cba
00000360: f7e6 f03c 8da3 d4ba 9efb 80bc 27f6 ab3c
00000370: dcad 40bc 53d3 9cbc 6724 e33c 3497 ed3b
00000380: 8d1d 3bbc 73c5 6b3b 9dc5 a2bb 4bcd c6bc
00000390: ff4b 7d3b 5838 b2bb 8a03 1fbc c74a 8cbc
000003a0: bcee 82bc f031 f2bc 0ae3 0d3d 0e36 9bbc
000003b0: 7b7c 67bc 87dd da3c 9d39 a0bc 64fe fe3b
000003c0: 30c7 403c 44e3 6fbc f2ca fd3b 5e67 dabc
000003d0: c048 eabb b4a0 c23c ed0b ebbc 0ed5 d8b8
000003e0: d120 bd3c a970 1ebd a809 76bc 788f acbb
000003f0: c792 5abc 7744 cbbb 653c 83bc 3ac6 c7bc

stage2.block1.bn2.weight f4 [32]
0.09832195 0.068400145 0.09568152 0.12097731 0.09588435 0.104852885 0.08155268 0.101329006
0.08218044 0.117968775 0.09275799 0.11108191 0.08433663 0.10995564 0.103820495 0.09959871
0.09859037 0.103652425 0.09665661 0.11617798 0.101538576 0.11091269 0.10755017 0.10715561
0.0966243 0.10220815 0.09504566 0.09506214 0.1189223 0.085289896 0.106317446 0.09141465
00000000: 055d c93d 6015 8c3d acf4 c33d f4c2 f73d
00000010: 045f c43d 1cbd d63d 1705 a73d 9585 cf3d
00000020: 384e a83d 9d99 f13d e7f7 bd3d ea7e e33d
00000030: afb8 ac3d 6c30 e13d d79f d43d 69fa cb3d
00000040: bfe9 c93d b947 d43d e7f3 c53d b9ee ed3d
00000050: 75f3 cf3d 3126 e33d 4343 dc3d 6774 db3d
00000060: f6e2 c53d 8252 d13d 4da7 c23d f0af c23d
00000070: 898d f33d 78ac ae3d f6bc d93d 9b37 bb3d

stage2.block1.bn2.bias f4 [32]
-0.041246284 0.00965243 -0.014970109 -0.032824703 -0.02116548 -0.01971455 -0.032492485 -0.0058697253
-0.038073767 -0.04922101 -0.051799867 -0.005488367 -0.031067764 -0.025960818 -0.07357434 0.0096411435
-0.015013292 -0.016539285 -0.039677244 -0.013018542 -0.046862897 -0.024789067 -0.0066567194 -0.03977304
-0.03872154 0.009190585 -0.030989008 -0.009642388 -0.0365296 -0.056591414 0.0010227193 -0.01940523
00000000: ddf1 28bd 3a25 1e3c 3045 75bc 3273 06bd
00000010: 3b63 adbc 6880 a1bc d716 05bd d356 c0bb
00000020: 3df3 1bbd f89b 49bd 192c 54bd c2d7 b3bb
00000030: d381 febc c8ab d4bc 25ae 96bd e3f5 1d3c
00000040: 50fa 75bc 657d 87bc 9b84 22bd b94b 55bc
00000050: 4ff3 3fbd 7112 cbbc 9c20 dabb 0ee9 22bd
00000060: 7a9a 1ebd 1c94 163c a9dc fdbc 1bfb 1dbc
00000070: 10a0 15bd 66cc 67bd c40c 863a b8f7 9ebc

stage2.block1.bn2.running_mean f4 [32]
0.0018624905 -0.0059644724 -0.009766421 -0.015984245 0.0051652794 -0.023879474 -0.0018543658 -0.024692882
0.009799363 -0.00013501686 0.013521864 -0.019731408 -0.0018677072 -0.017986389 0.001958653 -0.02764436
-0.01409484 -0.026749348 -0.003304945 -0.02679826 -0.00390943 -0.017450742 -0.02519643 -0.012452209
0.01641706 -0.03327559 0.00030366922 -0.00745354 -0.02401383 0.021678166 -0.035748594 -0.017584294
00000000: d01e f43a 9f71 c3bb 5703 20bc 64f1 82bc
00000010: 8141 a93b e39e c3bc 310e f3ba ba48 cabc
00000020: 828d 203c 5093 0db9 cf8a 5d3c c3a3 a1bc
00000030: dbcd f4ba 3158 93bc bf5c 003b 6d76 e2bc
00000040: 0bee 66bc 7321 dbbc c797 58bb 0688 dbbc
00000050: ad1a 80bb dcf4 8ebc be68 cebc 5a04 4cbc
00000060: 127d 863c fc4b 08bd cb35 9f39 d33c f4bb
00000070: a7b8 c4bc 6996 b13c 1e6d 12bd f00c 90bc

stage2.block1.bn2.running_var f4 [32]
0.00037435058 0.00028197246 0.0006397716 0.00041580098 0.00054953445 0.00047718227 0.0004216735 0.00049752265
0.00028273134 0.0005898746 0.00023727096 0.0006127742 0.00029368204 0.00033622945 0.000384116 0.0007703182
0.00048077476 0.0005992385 0.0004326024 0.0008959623 0.0003410232 0.00042469596 0.00059640233 0.00070557767
0.0003217778 0.00067390624 0.00046960602 0.0004315005 0.00058838085 0.00041342454 0.00068492745 0.00029033073
00000000: 7c44 c439 b4d5 9339 58b6 273a ddff d939
00000010: a20e 103a 522e fa39 0f14 dd39 2e6c 023a
00000020: 8f3b 9439 d0a1 1a3a f0cb 7839 95a2 203a
00000030: 56f9 9939 f447 b039 2d63 c939 2eef 493a
00000040: 7f10 fc39 3716 1d3a e9ce e239 03df 6a3a
00000050: 5ccb b239 baa9 de39 e257 1c3a 84f6 383a
00000060: 49b4 a839 15a9 303a 7435 f639 043b e239
00000070: 923d 1a3a e7c0 d839 b48c 333a 8837 9839

stage2.block1.conv2.weight f4 [32, 32, 3, 3]
0.005231466 0.005114757 0.037922114 -0.010628951 0.030468598 0.007813851 -0.021661393 0.012100631
-0.016569316 0.0014634433 -0.018965106 0.0036719365 -0.002077396 -0.017902736 -0.004973132 0.031321347
0.01919924 -0.01714572 0.032080702 0.027430609 -0.02452685 0.01742647 0.0081006335 0.006793453
0.036741856 -0.024016915 0.014502659 -0.016549928 -0.005326801 -0.024124034 0.012036306 0.010787459
0.00080017047 -0.027159996 0.0008083872 -0.029645901 0.0002921467 0.02890729 0.014134404 -0.004061577
0.010617523 -0.021370484 -0.022987945 -0.035056498 -0.04525445 -0.023304988 -0.02661284 -0.01952274
-0.024668677 -0.00839772 0.010052664 -0.023890642 0.003689653 -0.0032982007 -0.026476094 -0.0045567295
-0.014438563 -0.016844783 0.010627622 0.004994305 -0.044048745 -0.004611352 -0.008411338 0.00066407566
-0.028180663 -0.03942255 -0.007971744 -0.0013293311 -0.004960521 0.012926015 0.0028122554 -0.014767168
0.00048703694 0.0062543335 -0.0031575689 -0.0054833787 0.013724038 0.013043235 -0.012124986 0.003045807
0.025741454 -0.003299961 -0.014038359 -0.033404667 0.010768747 -0.007686965 -0.003829622 0.012616192
0.018228384 0.011513254 0.002394428 -0.012838692 -0.0022024368 0.0026839061 0.004541057 -0.017865578
-0.012970409 -0.022433264 -0.023401972 0.0082860775 0.03212506 -3.1562562e-05 0.014441539 0.015239376
-0.042917818 -0.011062253 -0.0024699597 -0.03803901 -0.0036016903 -0.0069139106 -0.00843525 0.011913756
0.014252182 -0.003699537 0.024478333 0.011439271 -0.002918043 0.02282506 0.03079983 0.023719834
0.025257695 0.0028355091 -0.01966832 0.004039471 0.019890964 -0.02420403 -0.016450696 -0.014124813
-0.028044958 -0.004570425 -0.014144396 -0.021922177 -0.01761636 0.025500337 -0.006551762 0.01742485
0.0007719467 -0.041608848 0.032069948 -0.0038924003 -0.028750902 -0.0026037681 -0.011097575 0.0011512863
-3.773922e-05 0.016484758 0.043521978 -0.005602289 0.0050286227 -0.010144484 -0.009873064 0.0013553093
0.00196109 0.0065641482 0.018751953 -0.030313548 -0.020422578 -0.01779471 0.015411888 -0.056722388
-0.013475555 0.015877511 -0.04517697 -0.010733082 0.020679582 -0.013246434 0.008108088 0.013222569
-0.033776835 -0.018613758 -0.015339441 -0.023801088 0.048042204 -0.0008628363 0.016348373 -0.024360776
-0.045364168 -0.011019214 -0.010186066 0.023598438 0.013933666 0.0069730408 0.0061375634 0.0007958187
-0.01858568 0.0016839918 -0.012471964 -0.002744808 0.0047674146 0.02750791 0.01839403 0.010332845
0.00074363133 -0.000708566 0.0092699 -0.019744003 0.0051807547 0.0047113905 -0.019911349 0.011580201
0.0041346718 -0.020413384 -0.022714581 0.024273708 -0.020574877 -0.0027092143 0.025636373 -0.025012588
-0.018967146 -0.0040274053 0.011015601 0.004176959 0.028244656 -0.026005115 0.016536338 -0.007889328
0.008999737 0.011740125 0.03304617 -0.019753523 -0.001622102 0.008999847 -0.009918814 0.0059332554
-0.0095156785 0.030913858 -0.00038990885 -0.0010699575 -0.0086218165 0.007690796 -0.0041658273 -0.0068002073
-0.023637133 -0.0540024 0.006120542 0.04945116 0.033699993 -0.022913361 -0.00600856 0.011441061
-0.02383214 -0.0055497778 -0.03312441 -0.03670445 -0.021112913 0.009561606 -0.008246472 0.0061676847
-0.010056756 -0.026440848 -0.024378745 -0.030137563 0.005836424 -0.016338874 0.023835702 0.028543519
00000000: b86c ab3b b199 a73b 3854 1b3d 0d25 2ebc
00000010: 4899 f93c ab05 003c 3c73 b1bc ba41 463c
00000020: 60bc 87bc 02d1 bf3a b65c 9bbc dfa4 703b
00000030: ec24 08bb c2a8 92bc a8f5 a2bb d04a 003d
00000040: b947 9d3c 2e75 8cbc 0e67 033d 28b6 e03c
00000050: 88ec c8bc f5c1 8e3c 85b8 043c 9d9b de3b
00000060: a17e 163d 1fbf c4bc 909c 6d3c b793 87bc
00000070: 728c aebb c49f c5bc ed33 453c e2bd 303c
00000080: 88c2 513a a47e debc f2e9 533a f6db f2bc
00000090: 442b 9939 fbce ec3c fd93 673c fa16 85bb
000000a0: 1ff5 2d3c 2711 afbc 3751 bcbc 6797 0fbd
000000b0: bb5c 39bd 1aea bebc 2c03 dabc 27ee 9fbc
000000c0: f715 cabc 9796 09bc eeb3 243c 4fb6 c3bc
000000d0: 1bce 713b a026 58bb 65e4 d8bc 9e50 95bb
000000e0: b98f 6cbc 12fe 89bc 7a1f 2e3c 44a7 a33b
000000f0: 756c 34bd d31a 97bb b5cf 09bc 5d15 2e3a
00000100: 22db e6bc 8a79 21bd eb9b 02bc f33c aeba
00000110: de8b a2bb a3c7 533c d14d 383b fef1 71bc
00000120: fe58 ff39 27f1 cc3b 37ef 4ebb eaad b3bb
00000130: cada 603c 4bb3 553c e1a7 46bc 299c 473b
00000140: bedf d23c 2944 58bb 2501 66bc 55d3 08bd
00000150: 666f 303c f0e2 fbbb 65fa 7abb 25b4 4e3c
00000160: b153 953c 16a2 3c3c d6eb 1c3b 6159 52bc
00000170: c256 10bb 79e4 2f3b 26cd 943b d55a 92bc
00000180: d781 54bc f7c5 b7bc 7eb5 bfbc 54c2 073c
00000190: 9195 033d 0b62 04b8 349c 6c3c 93ae 793c
000001a0: 98ca 2fbd 743e 35bc 0cdf 21bb cbce 1bbd
000001b0: 560a 6cbb 168e e2bb 0134 0abc ea31 433c
000001c0: fc81 693c ee73 72bb c986 c83c c86b 3b3c
000001d0: a33c 3fbb 9ffb ba3c ed4f fc3c 1950 c23c
000001e0: 3ae9 ce3c f3d3 393b 751f a1bc 8a5d 843b
000001f0: 60f2 a23c 8847 c6bc 9cc3 86bc c26b 67bc
00000200: 8abe e5bc 81c3 95bb e6bd 67bc 2396 b3bc
00000210: 2f50 90bc 15e6 d03c 2ab0 d6bb 8fbe 8e3c
00000220: 775c 4a3a 0a6e 2abd c75b 033d a417 7fbb
00000230: 0387 ebbc fba3 2abb 9ad2 35bc c2e6 963a
00000240: 2e4a 1eb8 0b0b 873c 1a44 323d 6893 b7bb
00000250: 25c7 a43b 0d35 26bc a2c2 21bc a2a4 b13a
00000260: a185 003b 1118 d73b b29d 993c 1e54 f8bc
00000270: 404d a7bc 36c6 91bc 2582 7c3c bc55 68bd
00000280: 93c8 5cbc 8e11 823c 7d0b 39bd cfd9 2fbc
00000290: 3a68 a93c 9207 59bc c9d7 043c 79a3 583c
000002a0: 9459 0abd e17b 98bc 4752 7bbc 80fa c2bc
000002b0: e7c7 443d f72f 62ba 06ed 853c 4090 c7bc
000002c0: c7cf 39bd ef89 34bc 75e3 26bc 8351 c13c
000002d0: 084a 643c 1b7e e43b 9d1d c93b 7d9e 503a
000002e0: ff40 98bc 63b9 dc3a 3557 4cbc 3de2 33bb
000002f0: f937 9c3b 4558 e13c 14af 963c 184b 293c
00000300: 41f0 423a 0fbf 39ba c7e0 173c 2dbe a1bc
00000310: 52c3 a93b 0262 9a3b 201d a3bc e2ba 3d3c
00000320: 247c 873b f839 a7bc ee13 babc a8d9 c63c
00000330: a58c a8bc 138d 31bb 5f03 d23c 33e7 ccbc
00000340: fd60 9bbc 53f8 83bb c87a 343c dfde 883b
00000350: 5661 e73c ae08 d5bc 3777 873c 3d42 01bc
00000360: a273 133c a759 403c 6c5b 073d 24d2 a1bc
00000370: b69c d4ba 1874 133c 8582 22bc c16b c23b
00000380: a6e7 1bbc 0f3f fd3c ae6c ccb9 d13d 8cba
00000390: 8542 0dbc 1303 fc3b 7e81 88bb 46d4 debb
000003a0: a9a2 c1bc 9f31 5dbd d48e c83b 4d8d 4a3d
000003b0: 0109 0a3d cdb4 bbbc 74e3 c4bb 4a73 3b3c
000003c0: 9f3b c3bc e9da b5bb 76ad 07bd 6857 16bd
000003d0: fdf4 acbc 48a8 1c3c 361c 07bc 4a1a ca3b
000003e0: 18c5 24bc 7a9a d8bc efb5 c7bc 0de3 f6bc
000003f0: 793f bf3b 1ad9 85bc 1743 c33c 19d4 e93c

stage2.block1.shortcut.conv.weight f4 [32, 16, 1, 1]
0.0053929784 -0.016836358 8.103874e-05 0.048554797 0.018665979 -0.01896026 0.014114594 0.012137466
0.0039914683 -0.0063843294 -0.00080617913 -0.016919363 0.041730057 -0.00604612 0.005417083 0.030563831
-0.00016779925 -0.0077631995 0.009628215 0.0067420555 -0.02183089 -0.024282731 0.003982869 -0.02013058
0.030585162 0.008191037 0.0063595055 0.0028392435 -0.014795279 -0.0048022163 0.04474012 -0.020888207
-0.012191069 -0.016006395 -0.008550443 0.00047218145 0.028878467 -0.013746726 -0.01646459 -0.033399425
-0.0009247122 0.0080929715 -0.02068152 0.00799363 -0.02192636 0.005434274 0.015850933 0.022571648
0.016647117 0.0024939142 -0.015728587 0.021198645 -0.035420544 -0.008021766 0.0003473112 -0.004399212
-0.03504117 -0.01801895 0.0019741375 0.012857756 -0.010328347 0.008473378 -0.0218795 0.032863904
-0.010438015 0.012907286 0.010173316 0.011980936 -0.0038762891 -0.001837466 -0.013934712 -0.015190297
0.020895073 0.029857129 -0.047793012 0.022986438 0.008969457 -0.02717201 -0.004147696 -0.009351901
6.653301e-05 0.008903928 0.028110648 0.0021719555 0.009538466 -0.0051112087 0.019595364 0.011210378
-0.021684125 0.0031064255 0.015705181 0.00403199 0.019342586 0.014303476 0.0083431145 0.0108470265
-0.0026177927 0.006122583 0.0045579565 -0.040008 0.0020897146 -0.017067002 0.01358431 -0.0020370078
0.020624353 -0.01766183 0.053764835 0.00019048968 -0.013705017 -0.008028681 -0.019133106 -0.012701271
0.016823733 -0.0032779456 -0.0076941415 -0.002640113 0.009882104 -0.0031637934 -0.0032323983 0.0041183983
0.014039252 0.046434294 0.02195593 0.006273705 -0.0029126406 0.009946789 -0.0060349405 0.0062343027
0.02395995 -0.02377569 -0.011994341 0.017082399 -0.0174075 -0.0029120673 -0.027239412 0.020255877
-0.008240541 0.00351186 -0.015490808 0.003871324 -0.0014011813 0.0089496225 0.024281267 -0.015207032
0.017284034 -0.0017779706 -0.015362151 0.0014551774 0.00538831 0.008910859 -0.012778219 -0.005508981
0.003521083 0.013526781 -0.016761024 -0.019780934 -0.014223434 0.0017911207 0.02720218 0.007989544
-0.010925289 -0.0143300295 -0.0008323972 0.0058541032 -0.027584014 -0.016283333 -0.032447513 0.0018785065
-0.0048773643 0.011907626 -0.017001107 0.011079146 -0.03135902 -0.0048475955 0.016484946 0.0150115825
-0.0037913085 0.0027731482 0.017948447 0.008832362 0.02436115 0.0042918846 -0.0051068086 -0.016915418
0.0092693325 -0.0055208798 0.0038655268 -0.018734297 0.008287431 -0.009253243 0.009452035 0.006704926
0.0052576466 -0.0070945784 -0.0071189255 -0.015574503 -0.02890772 0.002753173 -0.006429978 -0.01728887
0.01101976 -0.0045574848 -0.039490882 -0.01751469 0.007165638 -0.00485242 -0.014066535 0.016441755
-0.018897936 0.022467282 -0.010770112 -0.0034255537 0.00836839 0.018868139 0.0130386865 -0.004553771
0.0004075769 -0.0037738546 -0.005520132 -0.02010651 0.012023343 -0.010393473 -0.02770515 -0.01361079
-0.012594784 0.014067624 0.013943414 -0.014583227 -0.028128931 -0.015824832 -0.016862035 0.019542115
0.027756711 -0.01975244 -0.013465145 0.024857663 -0.008829471 0.009316565 -0.008232673 0.007527377
0.001062012 -0.00030277573 -0.038014177 0.028608961 0.0024429741 -0.0010171828 -0.014624848 -0.0044295522
0.015819477 0.0010774855 0.0060567777 -0.0003137001 -0.048025336 -0.009555215 0.015701657 -0.0013648968
00000000: 95b7 b03b 67ec 89bc 58f3 a938 65e1 463d
00000010: 65e9 983c 8c52 9bbc e640 673c 39dc 463c
00000020: ddca 823b a333 d1bb c455 53ba 7a9a 8abc
00000030: 23ed 2a3d 881e c6bb c981 b13b 0061 fa3c
00000040: 45f3 2fb9 7062 febb a9bf 1d3c 76ec dc3b
00000050: b2d6 b2bc 94ec c6bc ba82 823b e3e8 a4bc
00000060: bc8d fa3c b333 063c 6663 d03b 9a12 3a3b
00000070: e667 72bc e95b 9dbb 6b41 373d bf1d abbc
00000080: 0dbd 47bc d81f 83bc 2817 0cbc 1f8f f739
00000090: 8992 ec3c f339 61bc bfe0 86bc d6cd 08bd
000000a0: 6368 72ba 6298 043c 4b6c a9bc b7f7 023c
000000b0: e99e b3bc ff11 b23b d1d9 813c 2de8 b83c
000000c0: 895f 883c f070 233b 3dd9 80bc c8a8 ad3c
000000d0: 2215 11bd ba6d 03bc 5217 b639 4427 90bb
000000e0: 5487 0fbd 7a9c 93bc 8860 013b 56a9 523c
000000f0: 3a38 29bc ecd3 0a3c a33c b3bc 4d9c 063d
00000100: 3504 2bbc 1579 533c fbad 263c b04b 443c
00000110: 5709 7ebb 21d7 f0ba 6b4e 64bc b9e0 78bc
00000120: 252c ab3c f096 f43c 9bc2 43bd 0e4e bc3c
00000130: a1f4 123c d697 debc 65e9 87bb b738 19bc
00000140: a387 8b38 c8e1 113c 4d48 e63c 5e57 0e3b
00000150: 3a47 1c3c ed7b a7bb 7586 a03c bcab 373c
00000160: e8a2 b1bc 2c95 4b3b 27a8 803c c91e 843b
00000170: 5874 9e3c 2059 6a3c 8fb1 083c bab7 313c
00000180: 468f 2bbb f39f c83b e95a 953b 6edf 23bd
00000190: 98f3 083b 19d0 8bbc ba90 5e3c 527f 05bb
000001a0: 67f4 a83c 8baf 90bc 8438 5c3d 2fbe 4739
000001b0: 028b 60bc bb8a 03bc 08bd 9cbc fe18 50bc
000001c0: edd1 893c cdd2 56bb 231f fcbb bf05 2dbb
000001d0: 8ce8 213c a557 4fbb a5d6 53bb a1f3 863b
000001e0: e404 663c e331 3e3d ecdc b33c a793 cd3b
000001f0: 00e2 3ebb dbf7 223c c0c0 c5bb 1f49 cc3b
00000200: a847 c43c 3cc5 c2bc ea83 44bc 63f0 8b3c
00000210: 2c9a 8ebc 62d8 3ebb 3025 dfbc a7ef a53c
00000220: 5603 07bc 3c27 663b 28cd 7dbc 0ab6 7d3b
00000230: d8a7 b7ba 70a1 123c 82e9 c63c ea26 79bc
00000240: 3f97 8d3c cb0a e9ba 88b1 7bbc a7bb be3a
00000250: 6c90 b03b dafe 113c bc5b 51bc af84 b4bb
00000260: f8c1 663b 6f9f 5d3c 6a4e 89bc a00b a2bc
00000270: 6809 69bc 0ac4 ea3a 1bd7 de3c 94e6 023c
00000280: fcff 32bc 80c8 6abc 3b35 5aba c7d3 bf3b
00000290: dff7 e1bc a064 85bc afe7 04bd 3838 f63a
000002a0: 4cd2 9fbb 3418 433c e845 8bbc 4e85 353c
000002b0: 5172 00bd 94d8 9ebb 700b 873c 24f3 753c
000002c0: 9a77 78bb b5bd 353b 9f08 933c 9cb5 103c
000002d0: 0991 c73c f0a2 8c3b 0457 a7bb 3492 8abc
000002e0: 66de 173c 7fe8 b4bb c754 7d3b ab78 99bc
000002f0: 01c8 073c ea9a 17bc b5dc 1a3c ffb4 db3b
00000300: 5648 ac3b a379 e8bb e045 e9bb 332c 7fbc
00000310: e2cf ecbc 946e 343b 91b2 d2bb 63a1 8dbc
00000320: 398c 343c f456 95bb 31c1 21bd f87a 8fbc
00000330: bacd ea3b 0d01 9fbb 5377 66bc dcb0 863c
00000340: d8cf 9abc 4e0d b83c 2075 30bc 417f 60bb
00000350: 921b 093c 5b91 9a3c 37a0 553c cd37 95bb
00000360: 0cb0 d539 c652 77bb 39e2 b4bb 68b6 a4bc
00000370: 8efd 443c 6349 2abc e9f5 e2bc caff 5ebc
00000380: 5a5a 4ebc e47b 663c eb72 643c 7dee 6ebc
00000390: a56e e6bc 14a3 81bc 4022 8abc c916 a03c
000003a0: 0b62 e33c decf a1bc e99c 5cbc 4ca2 cb3c
000003b0: 7ca9 10bc 81a4 183c 55e2 06bc 37a8 f63b
000003c0: 3633 8b3a dfbd 9eb9 c1b4 1bbd 575d ea3c
000003d0: 4e1a 203b fe52 85ba 0f9d 6fbc c725 91bb
000003e0: d997 813c 6a3a 8d3a ef77 c63b 1d78 a4b9
000003f0: 37b6 44bd 7a8d 1cbc c3a0 803c 56e6 b2ba

stage3.block1.bn1.weight f4 [32]
0.09130007 0.08609333 0.08359147 0.094177805 0.1103526 0.070124246 0.08226042 0.092648275
0.09114227 0.087996036 0.08563815 0.093420334 0.1073018 0.0944326 0.10168233 0.10008879
0.07687306 0.0982125 0.104634546 0.08676182 0.09150445 0.10100624 0.08290714 0.09857674
0.08077456 0.094988994 0.09705579 0.11321614 0.10145663 0.100825176 0.08615829 0.112233624
00000000: 88fb ba3d b351 b03d 0132 ab3d 4be0 c03d
00000010: 8b00 e23d 4d9d 8f3d 2778 a83d 61be bd3d
00000020: cca8 ba3d 4437 b43d 0e63 af3d 2953 bf3d
00000030: 0cc1 db3d e165 c13d d33e d03d 5afb cc3d
00000040: 9f6f 9d3d a323 c93d a34a d63d 2eb0 b13d
00000050: af66 bb3d 5cdc ce3d 38cb a93d 9ae2 c93d
00000060: 226d a53d 9789 c23d 30c5 c63d dddd e73d
00000070: 7ec8 cf3d 6e7d ce3d c273 b03d beda e53d

stage3.block1.bn1.bias f4 [32]
-0.038958855 -0.044528436 -0.009280999 -0.056255206 -0.05674365 -0.015555118 -0.015142006 -0.053622186
-0.029842943 -0.034424633 -0.021000665 -0.049975287 -0.042838573 -0.035492912 -0.031145878 -0.048456833
-0.015693631 -0.029209439 -0.06705925 -0.05153486 -0.027373355 -0.047980566 -0.032903876 -0.036541153
-0.026746498 -0.050120782 -0.042492133 -0.057413854 -0.04394628 -0.028024793 -0.03374495 -0.06874798
00000000: 5293 1fbd 7363 36bd 550f 18bc dc6b 66bd
00000010: 086c 68bd e5da 7ebc 2d16 78bc f0a2 5bbd
00000020: 3079 f4bc d800 0dbd 9609 acbc e3b2 4cbd
00000030: 8077 2fbd 0461 11bd a425 ffbc ac7a 46bd
00000040: ee8f 80bc a248 efbc 5c56 89bd 3816 53bd
00000050: 163e e0bc 4587 44bd 37c6 06bd 2dac 15bd
00000060: 791b dbbc 734b 4dbd 3b0c 2ebd ca2a 6bbd
00000070: 0401 34bd 4094 e5bc 2538 0abd becb 8cbd

stage3.block1.bn1.running_mean f4 [32]
-0.01643823 -0.012491347 -0.023083681 -0.023345755 -0.007834565 -0.013862237 -0.02306978 0.018539306
-0.021825284 -0.0015966457 -0.0113238655 -0.011512943 -0.013709667 -0.024726933 -0.02639595 -0.01707996
0.001260159 -0.02870478 -0.02677246 -0.021686882 -0.0069931806 -0.014905476 0.00731886 -0.022016106
-0.0044146357 0.0014050188 -0.0042639268 -0.014005756 -0.021638937 -0.028459666 0.0033815075 -0.03321044
00000000: 78a9 86bc 82a8 4cbc fd19 bdbc 993f bfbc
00000010: 8c5c 00bc 701e 63bc d6fc bcbc bedf 973c
00000020: f0ca b2bc 8a46 d1ba bc87 39bc c8a0 3cbc
00000030: 839e 60bc 2390 cabc 523c d8bc 46eb 8bbc
00000040: eb2b a53a 4926 ebbc eb51 dbbc b0a8 b1bc
00000050: 0d27 e5bb 1936 74bc 0cd3 ef3b 1f5b b4bc
00000060: a6a8 90bb 9c28 b83a 69b8 8bbb 6678 65bc
00000070: 2444 b1bc 3f24 e9bc 489c 5d3b ac07 08bd

stage3.block1.bn1.running_var f4 [32]
0.0005381678 0.0004919696 0.0004838759 0.00045318107 0.00061132683 0.0003531836 0.00056431687 0.0005096529
0.0005085463 0.0002912187 0.0003916326 0.00038656566 0.00046806224 0.00062973186 0.00053425605 0.00042998616
0.00045409627 0.00056708074 0.00050011085 0.0003983479 0.00044907967 0.00037258025 0.00039548543 0.00047627883
0.00042656716 0.0005214 0.0005771984 0.0005200574 0.00065987883 0.0006511279 0.00046682762 0.00066427974
00000000: d413 0d3a 85f7 003a b9b0 fd39 ef98 ed39
00000010: 7341 203a 802b b939 aaee 133a 3a9a 053a
00000020: f74f 053a b6ae 9839 0a54 cd39 f7ab ca39
00000030: 4066 f539 9714 253a 510d 0c3a c46f e139
00000040: c513 ee39 25a8 143a df19 033a 5ad9 d039
00000050: 7472 eb39 e056 c339 2859 cf39 10b5 f939
00000060: e0a4 df39 90ae 083a 214f 173a 7654 083a
00000070: b8fb 2c3a 74b0 2a3a 8bc0 f439 0f23 2e3a
